CNNLab/Deploy_Model/static/model/model.tflite (tflite, 300960 bytes, 6 tensors)

sequential/conv2d/BiasAdd/ReadVariableOp f4 [64]
-0.047019914 -0.03196686 -0.009272451 -0.008687281 -0.009984684 0.2181158 0.14717008 -0.008865984
0.05000002 -0.0110821985 0.18487817 0.06160472 0.01867359 -0.041135795 0.3114899 0.0010645926
0.030087449 0.061992034 -0.07388977 -0.034503456 0.005136723 -0.070522785 0.192243 0.18381476
-0.010471241 -0.00935767 0.026293391 -0.055170324 0.06041528 0.21402313 -0.20138139 0.26749846
0.18283229 -0.019506276 -0.06467953 0.19723587 -0.04712212 0.0051326137 -0.0021817412 -0.0037682753
0.22393088 -0.009120087 -0.000733817 0.21723379 -0.05923292 -0.18175231 -0.020726392 -0.00037080143
-0.009167365 -0.0057423944 0.15271235 -0.031413514 0.042190865 -0.010298542 -0.036116213 -0.150383
-0.041143537 0.22380894 -0.043343592 -0.014280491 -0.21790555 0.08310465 0.034677714 0.0291793
00000000: f497 40bd afef 02bd 7aeb 17bc 1955 0ebc
00000010: cd96 23bc c059 5f3e c1b3 163e a242 11bc
00000020: d2cc 4c3d 1c92 35bc b450 3d3e 3b55 7c3d
00000030: 5bf9 983c 027e 28bd 9b7b 9f3e cd89 8b3a
00000040: f479 f63c 5ceb 7d3d 8553 97bd 7f53 0dbd
00000050: f551 a83b 406e 90bd 59db 443e f039 3c3e
00000060: 918f 2bbc ea50 19bc 3d65 d73c 47fa 61bd
00000070: 0376 773d e128 5b3e ec36 4ebe 8ff5 883e
00000080: 6338 3b3e a0cb 9fbc b476 84bd 33f8 493e
00000090: 2003 41bd 7c2f a83b 8bfb 0ebb 2bf5 76bb
000000a0: 234e 653e 6b6c 15bc a05d 40ba 8972 5e3e
000000b0: 389e 72bd 471d 3abe 65ca a9bc 2068 c2b9
000000c0: b732 16bc b22a bcbb a060 1c3e 75ab 00bd
000000d0: 54d0 2c3d 37bb 28bc 98ee 13bd 00fe 19be
000000e0: 2086 28bd 2c2e 653e 0d89 31bd b8f8 69bc
000000f0: a222 5fbe c532 aa3d 380a 0e3d 6d09 ef3c

sequential/conv2d_1/BiasAdd/ReadVariableOp f4 [64]
0.42300364 0.06062992 -0.061788443 0.09743151 0.5144832 0.18232547 0.062606156 -0.05239516
0.054537438 0.14502333 0.31049383 0.16842653 -0.046399392 0.10812291 -0.052980397 0.055203307
0.15257154 0.096448675 0.056174345 0.05948593 0.05474764 -0.039843272 -0.083184086 -0.049175482
-0.012733526 0.26393673 0.122256316 0.03791958 -0.022472309 -0.02706281 0.0769004 0.05802466
-0.02669504 -0.012815114 0.096803896 0.17387374 0.01277906 -0.028546365 0.083609946 0.0437741
-0.119747266 -0.010268211 0.08321592 0.15076348 -0.13135074 0.06442018 -0.054644123 -0.06412387
-0.10960817 -0.04167912 0.072561204 0.13796386 -0.038638923 0.13525157 0.019444434 0.0018157704
-0.030881751 -0.005689214 0.073262714 0.22858962 0.02590577 0.28023162 0.054822497 -0.02383915
00000000: ef93 d83e 1457 783d e115 7dbd 2c8a c73d
00000010: 2cb5 033f 87b3 3a3e a837 803d 4f9c 56bd
00000020: a662 5f3d ff80 143e 0cf9 9e3e 0178 2c3e
00000030: 4a0d 3ebd 8b6f dd3d f901 59bd dd1c 623d
00000040: b73b 1c3e e286 c53d 1217 663d 85a7 733d
00000050: 103f 603d b332 23bd 6b5c aabd 3b6c 49bd
00000060: 47a0 50bc b722 873e 8561 fa3d 9051 1b3d
00000070: d917 b8bc d3b2 ddbc f57d 9d3d 44ab 6d3d
00000080: 8eaf dabc 7cf6 51bc 1f41 c63d f50b 323e
00000090: 435f 513c 11da e9bc b13b ab3d 784c 333d
000000a0: 0e3e f5bd 003c 28bc 1c6d aa3d be61 1a3e
000000b0: cf80 06be baee 833d 84d2 5fbd 6053 83bd
000000c0: 407a e0bd bab7 2abd f89a 943d 6646 0d3e
000000d0: d943 1ebd 637f 0a3e ef49 9f3c 25ff ed3a
000000e0: bafb fcbc 966c babb c30a 963d 6613 6a3e
000000f0: 5638 d43c 857a 8f3e 8e8d 603d 524a c3bc

sequential/conv2d_2/BiasAdd/ReadVariableOp f4 [64]
-0.07816614 0.06642506 -0.036495734 -0.009092675 -0.08096908 0.06405255 0.11924192 -0.011404924
-0.01907314 0.14169446 -0.014812035 -0.015559686 -0.026348814 -0.036035407 -0.006630053 -0.022742674
-0.038297255 -0.012641212 -0.03520643 -0.026565494 -0.03429235 -0.01607074 -0.041882146 -0.007765358
-0.0073568234 -0.01393043 -0.010088428 -0.011589131 -0.013391458 -0.017042859 -0.012911082 -0.026666304
-0.009137481 -0.008529166 -0.008792245 -0.030880699 -0.01189912 -0.008946491 -0.011917982 -0.008178619
-0.014175192 -0.012453676 -0.018034767 -0.014213198 -0.020393785 -0.032239582 -0.013374067 -0.009887397
-0.010201869 -0.038697317 -0.014899484 -0.013341429 -0.01154748 -0.009934523 -0.0066786255 -0.01309071
-0.012538101 -0.014655273 -0.008383378 -0.009411153 -0.02371151 -0.0120366225 -0.010617682 -0.006826121
00000000: 9215 a0bd dd09 883d 8d7c 15bd 71f9 14bc
00000010: 1ed3 a5bd fc2d 833d 1c35 f43d b8db 3abc
00000020: 463f 9cbc 5a18 113e 2dae 72bc 0eee 7ebc
00000030: 78d9 d7bc dd99 13bd ea40 d9bb d84e babc
00000040: 95dd 1cbd 161d 4fbc 9e34 10bd e19f d9bc
00000050: 2376 0cbd c9a6 83bc 9d8c 2bbd 8b74 febb
00000060: 8211 f1bb 753c 64bc ef49 25bc 57e0 3dbc
00000070: d967 5bbc 779d 8bbc 0189 53bc 4b73 dabc
00000080: 60b5 15bc eabd 0bbc 590d 10bc 85f9 fcbc
00000090: 87f4 42bc 4e94 12bc a443 43bc 9dff 05bc
000000a0: 113f 68bc 810a 4cbc a6bd 93bc 79de 68bc
000000b0: de10 a7bc a70d 04bd e71e 5bbc c0fe 21bc
000000c0: bd25 27bc 1481 1ebd f71c 74bc 0296 5abc
000000d0: a431 3dbc 69c4 22bc 5fd8 dabb 6b7a 56bc
000000e0: 9b6c 4dbc ac1c 70bc 705a 09bc 3d31 1abc
000000f0: a43e c2bc 4135 45bc c9f5 2dbc a7ad dfbb

sequential/conv2d/Conv2D f4 [64, 3, 3, 1]
0.047961287 0.8365775 -0.5531409 -0.12474315 -0.16328168 0.33473447 0.08001906 -0.62385964
0.24622168 -1.013826 -0.01659825 -0.028953029 -0.074102245 0.15381004 0.35858092 0.33671868
-0.40194088 0.16467041 0.48365498 -0.5142782 -0.44320926 -0.2022807 0.23988594 0.115534365
0.35046774 -0.06117122 -0.19517079 0.4241638 -0.00738065 -0.2580407 -0.29332986 -0.59550464
0.030132458 -0.13842088 0.54146045 0.28040865 -0.09180378 0.010507434 0.09551981 0.635217
-0.58869994 0.09611091 -0.38004467 0.5562701 -0.52862585 -1.8485171 -2.704325 -1.27381
-0.016958646 0.21047723 -0.254073 0.41100106 0.09005727 -0.031557873 -1.0175002 -1.5777771
-1.1723883 -0.77534425 -0.28426862 -0.079062544 -0.35395247 0.04842398 1.208202 0.724584
0.46333787 -0.067913964 -0.7980527 0.93752295 -0.35350156 0.13881184 -0.78505814 -0.1782566
-0.070709474 -0.42092144 -0.491191 0.09568147 0.75802183 0.9798459 0.003854097 -0.9241934
0.0058540343 0.2670956 0.14275452 -0.20056179 0.7034811 0.46494794 0.31839073 -0.7109598
-0.87848073 -0.09125192 1.0592303 -1.1591252 -0.13097322 0.3238172 -0.73110044 -2.2433312
0.32698444 -0.061956175 -2.5531976 -1.2444919 -0.30612552 -0.71182543 0.8166206 1.1142479
-0.19183625 -0.8882728 0.53919446 -0.45860115 -0.26765212 -0.5042167 -0.21165194 0.6067012
0.20650202 0.80505633 0.07745684 -0.15935387 -0.5767679 -0.84647113 -0.24472763 1.0249841
-0.13086839 0.055182282 0.06665052 0.72061163 -0.43000233 -0.15542816 -0.31259435 0.44656402
-0.43570134 -2.0641851 -1.5720246 -0.5076555 -0.6882707 -2.279221 -2.0288057 -0.9701002
0.2562034 0.50509524 0.62883544 -0.22065833 -0.21782368 0.40206963 -0.59629816 0.04709337
0.4412545 0.45234853 -0.81085217 -0.18023117 -0.1830585 0.47147435 -0.28365716 0.017256422
0.051373485 -0.6066313 0.88889796 -0.9952099 -0.040873386 0.44371334 -0.3365882 0.56064385
-0.34069246 0.046710096 -0.75878096 0.71574575 0.13922474 -0.3177169 0.21630494 -0.10978689
-0.5205024 0.2701439 0.4387562 -0.3500547 0.28233093 -0.49509838 0.22615619 0.9909548
-0.3604081 -0.546684 0.38388264 -0.13693434 -0.069628686 -0.060773093 0.5981521 -0.31904632
-0.27614418 -1.4882243 0.7096179 0.44082206 -0.34280905 -0.28122297 0.091013305 0.11754351
-0.25694326 0.28866902 -0.6201463 0.6912656 0.19036645 -0.22181089 -1.5614927 -0.88701487
-0.29706395 -0.43730187 -0.10108628 0.2544192 -1.4898692 -0.2997153 0.76200205 -1.3061697
-0.1658064 0.15224439 -0.15054965 0.2827491 -0.33831605 0.06092221 -2.014451 -2.4082427
0.040905967 0.7052626 0.06478309 -0.5718735 -0.1404087 -0.6787378 0.6708544 0.10957809
-0.2606052 -1.2947131 -0.49869975 0.15109044 0.37038517 -0.06771366 -0.624684 -0.008392595
0.10722686 0.58160233 0.17832854 -0.7414282 0.28099808 0.532073 -0.5342452 1.0528096
-0.64705926 0.732905 -0.9002844 -0.70087343 -0.5106269 0.13104394 -0.20225146 0.1814322
-0.047252793 0.32488966 0.58001995 -0.11625918 0.62750363 -0.43084595 -0.22916025 -1.204845
00000000: 0e73 443d f129 563f a49a 0dbf 5679 ffbd
00000010: 5033 27be 5162 ab3e 08e1 a33d 44b5 1fbf
00000020: 8921 7c3e 0dc5 81bf 0ef9 87bc e72e edbc
00000030: ebc2 97bd 6180 1d3e eb97 b73e 6466 ac3e
00000040: 32cb cdbe 5c9f 283e a0a1 f73e bca7 03bf
00000050: 53ec e2be ac22 4fbe a9a4 753e 489d ec3d
00000060: 8270 b33e ac8e 7abd dada 47be ff2b d93e
00000070: 61d9 f1bb e91d 84be 552f 96be fe72 18bf
00000080: 58d8 f63c 34be 0dbe 279d 0a3f b991 8f3e
00000090: 9f03 bcbd 5f27 2c3c e49f c33d 959d 223f
000000a0: 0ab5 16bf ccd5 c43d 3795 c2be b867 0e3f
000000b0: 0654 07bf 359c ecbf a913 2dc0 350c a3bf
000000c0: dcec 8abc 5887 573e db15 82be bb6e d23e
000000d0: f26f b83d d442 01bd 723d 82bf 9af4 c9bf
000000e0: d210 96bf f67c 46bf a88b 91be 8beb a1bd
000000f0: 4239 b5be 3958 463d 5da6 9a3f 567e 393f
00000100: 9f3a ed3e 7a16 8bbd 2f4d 4cbf 8101 703f
00000110: 28fe b4be b124 0e3e 92f9 48bf e688 36be
00000120: 21d0 90bd 0483 d7be 637d fbbe a6f4 c33d
00000130: b80d 423f 2ed7 7a3f 0595 7c3b f097 6cbf
00000140: 33d3 bf3b c1c0 883e 3e2e 123e 1260 4dbe
00000150: 5617 343f a80d ee3e 1c04 a33e 7601 36bf
00000160: 1de4 60bf 49e2 babd dc94 873f 375e 94bf
00000170: d81d 06be 5ecb a53e 6629 3bbf bd92 0fc0
00000180: 816a a73e c2c5 7dbd 9767 23c0 834b 9fbf
00000190: 7cbc 9cbe 313a 36bf 0c0e 513f ad9f 8e3f
000001a0: b970 44be d965 63bf a608 0a3f c5cd eabe
000001b0: b309 89be 5814 01bf 49bb 58be c550 1b3f
000001c0: 4475 533e 2c18 4e3f b1a1 9e3d a92d 23be
000001d0: 10a7 13bf 55b2 58bf e199 7abe ae32 833f
000001e0: 5d02 06be d106 623d 1180 883d 017a 383f
000001f0: 4429 dcbe 8f28 1fbe 5e0c a0be 0aa4 e43e
00000200: 3f14 dfbe 9c1b 04c0 1a38 c9bf b6f5 01bf
00000210: 8232 30bf c2de 11c0 f4d7 01c0 7d58 78bf
00000220: 182d 833e ec4d 013f 5cfb 203f 42f4 61be
00000230: 2c0d 5fbe 12dc cd3e ffa6 18bf fae4 403d
00000240: 1cec e13e 3a9a e73e 0294 4fbf 858e 38be
00000250: b073 3bbe 1665 f13e 833b 91be 575d 8d3c
00000260: 016d 523d 304c 1bbf d18e 633f 13c6 7ebf
00000270: da6a 27bd 652e e33e 4a55 acbe 5b86 0f3f
00000280: 3e6f aebe 1653 3f3d 783f 42bf 1d3b 373f
00000290: ee90 0e3e caab a2be 0b7f 5d3e f3d7 e0bd
000002a0: a53f 05bf 4d50 8a3e a7a4 e03e 5f3a b3be
000002b0: ae8d 903e 897d fdbe 7d95 673e 37af 7d3f
000002c0: 6987 b8be 7cf3 0bbf 448c c43e 8438 0cbe
000002d0: 7c99 8ebd 35ed 78bd 7f20 193f 0a5a a3be
000002e0: c562 8dbe 227e bebf 85a9 353f 6eb3 e13e
000002f0: ab84 afbe 75fc 8fbe 2f65 ba3d a7ba f03d
00000300: 118e 83be 6dcc 933e e8c1 1ebf c8f6 303f
00000310: 6cef 423e 6522 63be fede c7bf 6813 63bf
00000320: c418 98be 08e6 dfbe 5306 cfbd 3c43 823e
00000330: 09b4 bebf 4974 99be 9112 433f 9230 a7bf
00000340: 27c9 29be f4e5 1b3e b029 1abe 7dc4 903e
00000350: c337 adbe 9189 793d c4ec 00c0 a620 1ac0
00000360: 048d 273d 178c 343f ffac 843d 4d66 12bf
00000370: 4cc7 0fbe c3c1 2dbf 1dbd 2b3f 7a6a e03d
00000380: 0b6e 85be 29b9 a5bf 9355 ffbe 74b7 1a3e
00000390: 20a3 bd3e 76ad 8abd 4aeb 1fbf 1881 09bc
000003a0: c299 db3d e4e3 143f c29b 363e 3dce 3dbf
000003b0: fbde 8f3e f035 083f 4bc4 08bf 77c2 863f
000003c0: ada5 25bf a99f 3b3f 0a79 66bf 716c 33bf
000003d0: 72b8 02bf 6230 063e 021b 4fbe 5dc9 393e
000003e0: 258c 41bd f057 a63e 307c 143f 4b19 eebd
000003f0: 14a4 203f d797 dcbe fca8 6abe 5c38 9abf

sequential/conv2d_1/Conv2D f4 [64, 3, 3, 64]
-0.1521734 -0.054028843 0.047392696 -0.0054807286 -0.14832841 0.16842571 0.13596293 -0.12166894
0.09464738 -0.10876532 -0.04036044 0.25848308 -0.09325199 -0.1587336 0.049289525 -0.1493869
0.113546506 0.2568973 -0.005399976 0.064846985 -0.124093294 0.16564634 0.2304016 -0.009858712
0.049870025 0.018204685 0.21585311 -0.020501325 0.22500774 0.03192903 -0.23219295 0.22943462
0.20585452 -0.15848024 0.026321622 0.06490877 -0.20483133 -0.112024605 -0.021956023 -0.29302558
0.24760792 0.031047346 -0.3688005 0.09544697 -0.08129477 0.08966138 0.09240225 -0.10715119
-0.15519583 0.20024937 -0.072910026 0.10071801 0.18615083 0.06887182 -0.17503424 -0.0068450556
0.0144321965 -0.09474094 0.09895361 0.07973848 -0.07936422 0.06673196 0.11164424 -0.33546162
-0.25505674 0.10643877 -0.06218054 -0.1054552 0.007219245 0.0040106033 -0.08878459 -0.08798265
0.29427296 0.15267102 0.21133745 -0.119793944 0.101765744 -0.04799282 -0.12759537 -0.118643895
-0.548071 -0.075481094 -0.09385198 0.01608436 -0.08398201 -0.04476878 -0.48874706 -0.14438757
0.03939075 -0.09700535 -0.138418 0.09883784 -0.39984435 -0.17441314 -0.3707594 -0.1373529
0.2714086 0.1597535 0.03933337 0.18893307 -0.0657467 -0.11764198 -0.22784238 0.14109474
-0.30157736 -0.31655648 0.1348941 -0.16189972 -0.4558591 -0.10825261 0.24120139 -0.26470742
-0.24374473 -0.003924164 -0.4573862 0.11593329 0.16010943 0.056672826 -0.3733487 0.35477954
-0.2156785 0.10289003 -0.07137934 0.21807326 -0.18809786 -0.10024189 0.023006562 -0.053553797
-0.26980242 0.030602474 -0.37860885 -0.018419513 -0.42746624 -0.41181415 0.14631166 -0.12427381
0.41682872 0.28261474 0.3592099 -0.15768467 0.21035044 -0.30152163 0.10892291 -0.42840666
-0.28339013 0.097428255 -0.077799074 0.012431058 -0.32855126 -0.14932857 0.26102772 0.075967625
0.08606524 0.2579122 -0.027801566 0.25882062 0.31762663 -0.19915003 0.057147536 0.18787086
0.1024906 -0.56881773 0.04506095 -0.031005789 -0.08527947 -0.4547862 -0.089975014 0.14189976
0.29808092 -0.2548974 -0.0005765596 -0.110332794 -0.5348293 0.01954801 0.16081052 -0.71944827
-0.20795405 0.03235468 -0.3475146 -0.027774435 -0.07888908 -0.21105832 -0.41233468 0.14885382
-0.16887945 0.17900738 0.0037614084 0.20899056 -0.016808912 0.047648575 0.050621368 0.00080335455
-0.046850115 -0.12863286 -0.24791037 0.23187849 0.2654513 -0.016531939 0.13203846 0.05259175
-0.007590996 0.37631813 -0.32179832 0.24956165 -0.0058679082 0.15736857 0.07952067 0.19774547
0.008882786 0.1641733 -0.112376146 -0.12762842 -0.2407394 -0.019766772 -0.013108259 -0.063653454
-0.1719348 -0.05771648 0.054461922 0.11236819 0.17952158 0.4471028 -0.009632889 0.20298578
0.06550621 0.5645818 -0.07381627 -0.013209441 0.24783528 -0.094116904 -0.081862174 -0.079926334
0.21411407 0.21241881 0.017412206 0.24325368 -0.20743634 -0.120200075 0.050885893 -0.21259202
-0.030019624 -0.027472278 -0.14396039 0.02222146 -0.11134238 0.1006369 -0.11415077 0.084559396
-0.09911621 -0.31369984 0.09363579 0.031110553 -0.022772232 0.1226602 -0.11850335 -0.01267489
00000000: 58d3 1bbe 594d 5dbd d81e 423d af97 b3bb
00000010: 67e3 17be ca77 2c3e de39 0b3e 912d f9bd
00000020: 7cd6 c13d 5ac0 debd fd50 25bd e557 843e
00000030: e6fa bebd 108b 22be d0e3 493d e1f8 18be
00000040: 128b e83d 0b88 833e 48f2 b0bb 7fce 843d
00000050: a024 febd 329f 293e 66ee 6b3e 6f86 21bc
00000060: 8344 4c3d fe21 953c 9908 5d3e 65f2 a7bc
00000070: 6e68 663e 04c8 023d fdc3 6dbe e9f0 6a3e
00000080: 87cb 523e a548 22be 71a0 d73c e4ee 843d
00000090: 4ebf 51be 286d e5bd 1edd b3bc 7307 96be
000000a0: ee8c 7d3e 0157 fe3c 6bd3 bcbe b379 c33d
000000b0: df7d a6bd 63a0 b73d 643d bd3d 1572 dbbd
000000c0: a8eb 1ebe 2c0e 4d3e da51 95bd 3e45 ce3d
000000d0: 539e 3e3e ab0c 8d3d 2d3c 33be 7d4c e0bb
000000e0: 0575 6c3c 8a07 c2bd 31a8 ca3d ee4d a33d
000000f0: b589 a2bd c4aa 883d bca5 e43d a0c1 abbe
00000100: cc96 82be 92fc d93d 06b1 7ebd e5f8 d7bd
00000110: 6b8f ec3b 616b 833b b2d4 b5bd 3f30 b4bd
00000120: f2aa 963e cb55 1c3e d868 583e 8756 f5bd
00000130: 8f6a d03d 1f94 44bd 5ca8 02be 92fb f2bd
00000140: 624e 0cbf d595 9abd 7835 c0bd 59c3 833c
00000150: c3fe abbd 785f 37bd 0e3d fabe 56da 13be
00000160: 3258 213d beaa c6bd 73bd 0dbe 7e6b ca3d
00000170: 66b8 ccbe 5c99 32be 2dd4 bdbe 3da6 0cbe
00000180: 11f6 8a3e 6c96 233e 071c 213d ac77 413e
00000190: 35a6 86bd 47ee f0bd 834f 69be 247b 103e
000001a0: 5968 9abe b113 a2be ae21 0a3e 0ac9 25be
000001b0: 5d66 e9be 8bb3 ddbd 7ffd 763e bb87 87be
000001c0: 3898 79be 4696 80bb 862e eabe 6f6e ed3d
000001d0: baf3 233e c421 683d 9027 bfbe aaa5 b53e
000001e0: d3da 5cbe 02b8 d23d 552f 92bd 994e 5f3e
000001f0: ba9c 40be 9f4b cdbd 4278 bc3c 3a5b 5bbd
00000200: 8b23 8abe 0ab2 fa3c 05d9 c1be 85e4 96bc
00000210: dbdc dabe 4ed9 d2be b9d2 153e 4483 febd
00000220: 936a d53e e1b2 903e 5cea b73e 1778 21be
00000230: 1b66 573e 0b61 9abe fa12 df3d 1e58 dbbe
00000240: 8318 91be 7788 c73d 1f55 9fbd a3ab 4b3c
00000250: df37 a8be 97e9 18be 6da5 853e ea94 9b3d
00000260: f942 b03d 110d 843e 1cc0 e3bc 2384 843e
00000270: f59f a23e fced 4bbe 8913 6a3d 3861 403e
00000280: 97e6 d13d 0a9e 11bf d591 383d daff fdbc
00000290: 01a7 aebd bdd9 e8be d244 b8bd 2c4e 113e
000002a0: 109e 983e e981 82be 4324 17ba 29f6 e1bd
000002b0: 93ea 08bf 2623 a03c 83ab 243e c32d 38bf
000002c0: e8f1 54be 5786 043d 6fed b1be 3687 e3bc
000002d0: 9990 a1bd ac1f 58be 881d d3be 236d 183e
000002e0: bcee 2cbe b64d 373e f681 763b 9f01 563e
000002f0: d8b2 89bc 272b 433d 5a58 4f3d 3698 523a
00000300: e8e5 3fbd 55b8 03be 37dc 7dbe 8e71 6d3e
00000310: 3ce9 873e fd6d 87bc 1735 073e 726a 573d
00000320: e4bd f8bb c5ac c03e c0c2 a4be 178d 7f3e
00000330: 9547 c0bb 3a25 213e bcdb a23d ca7d 4a3e
00000340: 1b89 113c 0c1d 283e 7725 e6bd 06b1 02be
00000350: 6484 76be eded a1bc 06c4 56bc be5c 82bd
00000360: ad0f 30be 1e68 6cbd 7713 5f3d 4b21 e63d
00000370: 81d4 373e a8ea e43e 44d3 1dbc 81db 4f3e
00000380: 1f28 863d 6f88 103f fc2c 97bd 696c 58bc
00000390: 88c8 7d3e 5dc0 c0bd 5ba7 a7bd 6bb0 a3bd
000003a0: b840 5b3e 5184 593e 0ba4 8e3c 7e17 793e
000003b0: 316a 54be 752b f6bd ba6d 503d b9b1 59be
000003c0: b7eb f5bc 8b0d e1bc 5a6a 13be c709 b63c
000003d0: 7907 e4bd b81a ce3d e1c7 e9bd 7a2d ad3d
000003e0: 71fd cabd 449d a0be 1fc4 bf3d 8fdb fe3c
000003f0: d58c babc 4535 fb3d e2b1 f2bd 58aa 4fbc

sequential/conv2d_2/Conv2D f4 [64, 3, 3, 64]
0.086290926 -0.074417375 0.2108537 0.08969162 0.12648517 0.13415764 0.28606197 -0.01566393
-0.12056622 -0.04421038 0.22838134 0.1822226 -0.0929319 -0.08919495 -0.2977119 -0.027654761
0.12401162 -0.08698408 0.04180836 0.014401387 -0.15379299 0.013055056 0.17489088 0.16973823
0.072402716 -0.04180997 0.050672345 -0.035326894 0.116476044 -0.2046497 0.19610515 0.036823947
0.03490733 -0.034925412 0.12739211 -0.14314173 0.16411395 -0.018088156 -0.055602532 0.0859034
-0.082396775 -0.1074275 -0.06902864 -0.0103175435 -0.12759034 -0.00973389 -0.06067824 -0.07221342
-0.20547187 -0.067289636 -0.18961428 0.10872465 -0.018554877 0.15715177 0.11833573 -0.054678146
0.0041291043 -0.13509035 0.08974454 -0.16648287 -0.06778719 0.038997076 -0.079518326 0.059998237
-0.075522356 0.20009424 -0.122353025 -0.2531753 -0.11720648 0.31738466 0.09237902 -0.059711054
0.15668651 0.020565372 -0.13962564 0.03466045 -0.0030765054 0.017717397 -0.06670441 -0.03025478
-0.08237021 0.05835933 -0.045392413 -0.06905316 0.019909363 0.1846044 -0.19306254 0.05978133
0.036595233 0.23785672 0.19905724 0.019643636 0.10035106 -0.29186147 -0.16893077 -0.15672529
0.022360504 0.0092113875 -0.3150283 -0.010888958 -0.008083566 -0.013501649 -0.08548358 0.17573595
-0.20898865 -0.18032165 0.0070847976 0.09222646 -0.10005723 -0.14679413 -0.1978953 -0.37606773
-0.004181066 0.00044748804 -0.31184274 0.07869015 0.023307724 0.2154559 0.0009869077 -0.14819749
0.0020260483 -0.13119133 0.16897564 -0.15681429 -0.23086116 -0.19412908 -0.11767011 -0.014947189
-0.13821886 -0.32354748 0.006523659 -0.22744639 -0.12867127 -0.07740093 0.01957033 -0.048593752
0.18260676 -0.07188911 -0.6790649 -0.09945299 -0.24189961 0.0644817 0.0063712276 0.3858478
0.16965535 -0.120610945 0.16383193 -0.0027191807 0.11758536 0.12838215 -0.16215205 -0.1441257
-0.0442341 0.21208572 -0.037685778 0.16709146 0.0172898 0.16936697 0.3243374 -0.24948746
-0.08723372 0.32904065 0.010657385 -0.14934666 0.08242521 0.023185145 0.16959764 0.13858004
-0.05892711 -0.11380492 0.30021226 -0.22390626 0.09501671 -0.0028708722 0.027390251 0.27209705
-0.07853881 0.014554942 0.18227538 0.021979697 -0.057812102 -0.21650735 0.050945044 0.13692181
-0.021716164 -0.2726513 0.07911022 0.09496662 0.1616859 -0.116018 -0.27088344 0.023282021
0.16422907 0.11598982 -0.21251434 -0.026600804 0.20294225 0.006813789 -0.20568109 0.00536663
0.028945025 -0.1184413 -0.040649667 -0.042766925 0.05313897 0.023327336 -0.22818582 -0.0011086537
-0.06174068 -0.13912375 -0.045602005 0.0070183803 -0.2005524 0.065431975 -0.061938323 0.030561496
-0.024012621 -0.030219546 0.0459664 0.06508932 -0.009038908 -0.0956321 0.04066854 0.094407275
0.05205095 0.027566876 -0.10325799 0.11505863 0.013491714 0.049587134 -0.21471918 -0.12449651
-0.025457775 0.050033227 -0.10807387 0.18331729 -0.095733464 -0.26218805 0.17057385 0.096010745
0.03322706 -0.056787163 0.13436502 -0.29703966 0.048506945 0.066701055 0.003683918 0.07944636
-0.05047834 0.27262503 -0.10742724 -0.07871471 0.0030660518 0.019680576 0.0105924215 -0.017624741
00000000: 4cb9 b03d 2368 98bd 08ea 573e 3db0 b73d
00000010: 5485 013e 9f60 093e b776 923e a451 80bc
00000020: 6ceb f6bd f215 35bd ccdc 693e 9098 3a3e
00000030: 1453 bebd d8ab b6bd b26d 98be 3d8c e2bc
00000040: cef9 fd3d b624 b2bd 3e3f 2b3d ccf3 6b3c
00000050: e97b 1dbe e0e4 553c 9816 333e dccf 2d3e
00000060: e047 943d ee40 2bbd ce8d 4f3d efb2 10bd
00000070: fe8a ee3d b18f 51be cacf 483e b5d4 163d
00000080: fdfa 0e3d f30d 0fbd 1473 023e bf93 12be
00000090: 7d0d 283e 9d2d 94bc 7bbf 63bd 1fee af3d
000000a0: a4bf a8bd f302 dcbd e35e 8dbd ea0a 29bc
000000b0: 0ba7 02be e57a 1fbc bf89 78bd a1e4 93bd
000000c0: 3867 52be 26cf 89bd 3f2a 42be 08ab de3d
000000d0: 6600 98bc 65ec 203e 015a f23d 31f6 5fbd
000000e0: 704d 873b 2055 0abe fccb b73d 7c7a 2abe
000000f0: 03d4 8abd 66bb 1f3d 81da a2bd b6c0 753d
00000100: 77ab 9abd 81e5 4c3e 3994 fabd 31a0 81be
00000110: f309 f0bd 3e80 a23e 3631 bd3d 9493 74bd
00000120: 6e72 203e b678 a83c 06fa 0ebe 1ef8 0d3d
00000130: 329f 49bb 1324 913c 529c 88bd dfd8 f7bc
00000140: b6b1 a8bd 310a 6f3d 65ed 39bd be6b 8dbd
00000150: f618 a33c f008 3d3e 30b2 45be 45dd 743d
00000160: e2e4 153d b690 733e a9d5 4b3e b1eb a03c
00000170: db84 cd3d de6e 95be 30fc 2cbe 987c 20be
00000180: 602d b73c 5ceb 163c 644b a1be 9a67 32bc
00000190: ef70 04bc 0536 5dbc 0412 afbd 20f4 333e
000001a0: 1f01 56be 3da6 38be 9727 e83b 3ae1 bc3d
000001b0: ceea ccbd 3351 16be 11a5 4abe f38b c0be
000001c0: 5301 89bb d49c ea39 daa9 9fbe 4d28 a13d
000001d0: d7ef be3c 79a0 5c3e 215b 813a 15c1 17be
000001e0: 73c7 043b 0557 06be f307 2d3e ed93 20be
000001f0: de66 6cbe c6c9 46be 07fd f0bd 0ee5 74bc
00000200: 3f89 0dbe 04a8 a5be 6bc4 d53b b5e7 68be
00000210: 67c2 03be 6184 9ebd f551 a03c 3e0a 47bd
00000220: 44fd 3a3e 993a 93bd 33d7 2dbf 02ae cbbd
00000230: 88b4 77be fb0e 843d bbc5 d03b d88d c53e
00000240: 22ba 2d3e df02 f7bd 8fc3 273e 4834 32bb
00000250: 98d0 f03d 9c76 033e 300b 26be b095 13be
00000260: d12e 35bd 002d 593e 675c 1abd 061a 2b3e
00000270: 57a3 8d3c 896e 2d3e 8d0f a63e a479 7fbe
00000280: 98a7 b2bd 0478 a83e 509c 2e3c 55ee 18be
00000290: 8cce a83d c6ee bd3c 01ab 2d3e ede7 0d3e
000002a0: 8e5d 71bd 8e12 e9bd 6cb5 993e af47 65be
000002b0: 1f98 c23d 3e25 3cbb 8561 e03c 4e50 8b3e
000002c0: f5d8 a0bd da77 6e3c 66a6 3a3e c40e b43c
000002d0: 62cc 6cbd 1ab4 5dbe c0ab 503d 3b35 0c3e
000002e0: 19e6 b1bc f498 8bbe 8a04 a23d dc7d c23d
000002f0: fd90 253e d89a edbd 3cb1 8abe f0b9 be3c
00000300: aa2b 283e 128c ed3d 5c9d 59be eee9 d9bc
00000310: 18d0 4f3e 3446 df3b 109e 52be 8eda af3b
00000320: 1e1e ed3c 5a91 f2bd 4480 26bd 5f2c 2fbd
00000330: 40a8 593d f818 bf3c 8ba9 69be 3f50 91ba
00000340: cce3 7cbd 7576 0ebe 2bc9 3abd 71fa e53b
00000350: 9c5d 4dbe 3301 863d 0ab3 7dbd 1a5c fa3c
00000360: 1eb6 c4bc fb8e f7bc 4447 3c3d 8d4d 853d
00000370: ee17 14bc c3da c3bd 0e94 263d 9a58 c13d
00000380: 6033 553d eed3 e13c ed78 d3bd dca3 eb3d
00000390: 5a0c 5d3c e11b 4b3d 58df 5bbe 07f8 febd
000003a0: d38c d0bc a4ef 4c3d d555 ddbd 87b7 3b3e
000003b0: e80f c4bd 833d 86be e9aa 2e3e 48a1 c43d
000003c0: 1919 083d a899 68bd fc96 093e 9515 98be
000003d0: 38af 463d 909a 883d e36d 713b c6b4 a23d
000003e0: 60c2 4ebd 8295 8b3e d002 dcbd 2e35 a1bd
000003f0: d0ef 483b 2939 a13c d68b 2d3c c361 90bc
